Neural Network Tools for STM32AI v1.6.0 (STM.ai v7.1.0-RC3)
Created date          : 2022-05-29 15:30:47
Parameters            : generate --name network_1653745682126 -m C:/Users/DEMON.DESKTOP-9E21A9R/Desktop/comc/Hani-CIFAR10.h5 --type keras --compression 8 --verbosity 1 --workspace C:\Users\DEMON~1.DES\AppData\Local\Temp\mxAI_workspace4123167709890001052144581668725377 --output C:\Users\DEMON.DESKTOP-9E21A9R\.stm32cubemx\network_1653745682126_output

Exec/report summary (generate)
------------------------------------------------------------------------------------------------------------------------
model file            : C:\Users\DEMON.DESKTOP-9E21A9R\Desktop\comc\Hani-CIFAR10.h5
type                  : keras
c_name                : network_1653745682126
compression           : 8
workspace dir         : C:\Users\DEMON~1.DES\AppData\Local\Temp\mxAI_workspace4123167709890001052144581668725377
output dir            : C:\Users\DEMON.DESKTOP-9E21A9R\.stm32cubemx\network_1653745682126_output
model_name            : HaniCIFAR10
model_hash            : e2308ee168a52eb19cfed701bdfcaee6
input 1/1             : 'input_0'
                        3072 items, 12.00 KiB, ai_float, float, (1,32,32,3), domain:user/
output 1/1            : 'activation_6'
                        10 items, 40 B, ai_float, float, (1,1,1,10), domain:user/
params #              : 1,250,858 items (4.77 MiB)
macc                  : 20,867,296
weights (ro)          : 874,728 B (854.23 KiB) / -4,128,704(-82.5%) vs original model (1 segment)
activations (rw)      : 140,800 B (137.50 KiB) (1 segment)
ram (total)           : 153,128 B (149.54 KiB) = 140,800 + 12,288 + 40

Model name - HaniCIFAR10 ['input_0'] ['activation_6']
---------------------------------------------------------------------------------------------------------------------------------------------------------------------------
id   layer (type)                  oshape            param/size            macc        connected to      |   c_size               c_macc             c_type               
---------------------------------------------------------------------------------------------------------------------------------------------------------------------------
0    input_0 (Input)               (None,32,32,3)                                                        |                                          
     conv2d_1_conv2d (Conv2D)      (None,32,32,32)   896/3,584             884,768     input_0           |                        +32,768(+3.7%)     conv2d()[0]          
---------------------------------------------------------------------------------------------------------------------------------------------------------------------------
1    activation_1 (Nonlinearity)   (None,32,32,32)                         32,768      conv2d_1_conv2d   |                        -32,768(-100.0%)  
---------------------------------------------------------------------------------------------------------------------------------------------------------------------------
2    conv2d_2_conv2d (Conv2D)      (None,30,30,32)   9,248/36,992          8,294,432   activation_1      |                        +57,600(+0.7%)     optimized_conv2d()[1]
---------------------------------------------------------------------------------------------------------------------------------------------------------------------------
3    activation_2 (Nonlinearity)   (None,30,30,32)                         28,800      conv2d_2_conv2d   |                        -28,800(-100.0%)  
---------------------------------------------------------------------------------------------------------------------------------------------------------------------------
4    max_pooling2d_1 (Pool)        (None,15,15,32)                         28,800      activation_2      |                        -28,800(-100.0%)  
---------------------------------------------------------------------------------------------------------------------------------------------------------------------------
6    conv2d_3_conv2d (Conv2D)      (None,15,15,64)   18,496/73,984         4,147,264   max_pooling2d_1   |                        +14,400(+0.3%)     conv2d()[2]          
---------------------------------------------------------------------------------------------------------------------------------------------------------------------------
7    activation_3 (Nonlinearity)   (None,15,15,64)                         14,400      conv2d_3_conv2d   |                        -14,400(-100.0%)  
---------------------------------------------------------------------------------------------------------------------------------------------------------------------------
8    conv2d_4_conv2d (Conv2D)      (None,13,13,64)   36,928/147,712        6,230,080   activation_3      |                        +20,032(+0.3%)     optimized_conv2d()[3]
---------------------------------------------------------------------------------------------------------------------------------------------------------------------------
9    activation_4 (Nonlinearity)   (None,13,13,64)                         10,816      conv2d_4_conv2d   |                        -10,816(-100.0%)  
---------------------------------------------------------------------------------------------------------------------------------------------------------------------------
10   max_pooling2d_2 (Pool)        (None,6,6,64)                           9,216       activation_4      |                        -9,216(-100.0%)   
---------------------------------------------------------------------------------------------------------------------------------------------------------------------------
12   flatten_1 (Reshape)           (None,1,1,2304)                                     max_pooling2d_2   |                                          
---------------------------------------------------------------------------------------------------------------------------------------------------------------------------
13   dense_1_dense (Dense)         (None,1,1,512)    1,180,160/4,720,640   1,180,160   flatten_1         |   -4,128,704(-87.5%)                      dense(c4)[4]         
---------------------------------------------------------------------------------------------------------------------------------------------------------------------------
14   activation_5 (Nonlinearity)   (None,1,1,512)                          512         dense_1_dense     |                                           nl()[5]              
---------------------------------------------------------------------------------------------------------------------------------------------------------------------------
16   dense_2_dense (Dense)         (None,1,1,10)     5,130/20,520          5,130       activation_5      |                                           dense()[6]           
---------------------------------------------------------------------------------------------------------------------------------------------------------------------------
17   activation_6 (Nonlinearity)   (None,1,1,10)                           150         dense_2_dense     |                                           nl()/o[7]            
---------------------------------------------------------------------------------------------------------------------------------------------------------------------------
model/c-model: macc=20,867,296/20,867,296  weights=5,003,432/874,728 -4,128,704(-82.5%) activations=--/140,800 io=--/12,328



Generated C-graph summary
------------------------------------------------------------------------------------------------------------------------
model name            : hanicifar10
c-name                : network_1653745682126
c-node #              : 8
c-array #             : 23
activations size      : 140800 (1 segments)
weights size          : 874728 (1 segments)
macc                  : 20867296
inputs                : ['input_0_output']
outputs               : ['activation_6_output']

C-Arrays (23)
---------------------------------------------------------------------------------------------------------------
c_id   name (*_array)             item/size        domain/mem-pool           c-type        fmt         comment
---------------------------------------------------------------------------------------------------------------
0      input_0_output             3072/12288       user/                     float         float       /input 
1      conv2d_1_conv2d_output     32768/131072     activations/**default**   float         float              
2      conv2d_2_conv2d_output     7200/28800       activations/**default**   float         float              
3      conv2d_3_conv2d_output     14400/57600      activations/**default**   float         float              
4      conv2d_4_conv2d_output     2304/9216        activations/**default**   float         float              
5      dense_1_dense_output       512/2048         activations/**default**   float         float              
6      activation_5_output        512/2048         activations/**default**   float         float              
7      dense_2_dense_output       10/40            activations/**default**   float         float              
8      activation_6_output        10/40            user/                     float         float       /output
9      conv2d_1_conv2d_weights    864/3456         weights/                  const float   float              
10     conv2d_1_conv2d_bias       32/128           weights/                  const float   float              
11     conv2d_2_conv2d_weights    9216/36864       weights/                  const float   float              
12     conv2d_2_conv2d_bias       32/128           weights/                  const float   float              
13     conv2d_3_conv2d_weights    18432/73728      weights/                  const float   float              
14     conv2d_3_conv2d_bias       64/256           weights/                  const float   float              
15     conv2d_4_conv2d_weights    36864/147456     weights/                  const float   float              
16     conv2d_4_conv2d_bias       64/256           weights/                  const float   float              
17     dense_1_dense_weights      1179648/589888   weights/                  const float   c4 (LUT4)          
18     dense_1_dense_bias         512/2048         weights/                  const float   float              
19     dense_2_dense_weights      5120/20480       weights/                  const float   float              
20     dense_2_dense_bias         10/40            weights/                  const float   float              
21     conv2d_2_conv2d_scratch0   1920/7680        activations/**default**   float         float              
22     conv2d_4_conv2d_scratch0   1664/6656        activations/**default**   float         float              
---------------------------------------------------------------------------------------------------------------

C-Layers (8)
----------------------------------------------------------------------------------------------------------------------
c_id   name (*_layer)    id   layer_type         macc      rom      tensors                       shape (array id)   
----------------------------------------------------------------------------------------------------------------------
0      conv2d_1_conv2d   1    conv2d             917536    3584     I: input_0_output             (1,32,32,3) (0)    
                                                                    W: conv2d_1_conv2d_weights    (3,32,3,3) (9)     
                                                                    W: conv2d_1_conv2d_bias       (1,1,1,32) (10)    
                                                                    O: conv2d_1_conv2d_output     (1,32,32,32) (1)   
----------------------------------------------------------------------------------------------------------------------
1      conv2d_2_conv2d   4    optimized_conv2d   8352032   36992    I: conv2d_1_conv2d_output     (1,32,32,32) (1)   
                                                                    S: conv2d_2_conv2d_scratch0                      
                                                                    W: conv2d_2_conv2d_weights    (32,32,3,3) (11)   
                                                                    W: conv2d_2_conv2d_bias       (1,1,1,32) (12)    
                                                                    O: conv2d_2_conv2d_output     (1,15,15,32) (2)   
----------------------------------------------------------------------------------------------------------------------
2      conv2d_3_conv2d   7    conv2d             4161664   73984    I: conv2d_2_conv2d_output     (1,15,15,32) (2)   
                                                                    W: conv2d_3_conv2d_weights    (32,64,3,3) (13)   
                                                                    W: conv2d_3_conv2d_bias       (1,1,1,64) (14)    
                                                                    O: conv2d_3_conv2d_output     (1,15,15,64) (3)   
----------------------------------------------------------------------------------------------------------------------
3      conv2d_4_conv2d   10   optimized_conv2d   6250112   147712   I: conv2d_3_conv2d_output     (1,15,15,64) (3)   
                                                                    S: conv2d_4_conv2d_scratch0                      
                                                                    W: conv2d_4_conv2d_weights    (64,64,3,3) (15)   
                                                                    W: conv2d_4_conv2d_bias       (1,1,1,64) (16)    
                                                                    O: conv2d_4_conv2d_output     (1,6,6,64) (4)     
----------------------------------------------------------------------------------------------------------------------
4      dense_1_dense     13   dense              1180160   591936   I: conv2d_4_conv2d_output0    (1,1,1,2304) (4)   
                                                                    W: dense_1_dense_weights      (2304,1,1,512) (17)
                                                                    W: dense_1_dense_bias         (1,1,1,512) (18)   
                                                                    O: dense_1_dense_output       (1,1,1,512) (5)    
----------------------------------------------------------------------------------------------------------------------
5      activation_5      14   nl                 512       0        I: dense_1_dense_output       (1,1,1,512) (5)    
                                                                    O: activation_5_output        (1,1,1,512) (6)    
----------------------------------------------------------------------------------------------------------------------
6      dense_2_dense     16   dense              5130      20520    I: activation_5_output        (1,1,1,512) (6)    
                                                                    W: dense_2_dense_weights      (512,1,1,10) (19)  
                                                                    W: dense_2_dense_bias         (1,1,1,10) (20)    
                                                                    O: dense_2_dense_output       (1,1,1,10) (7)     
----------------------------------------------------------------------------------------------------------------------
7      activation_6      17   nl                 150       0        I: dense_2_dense_output       (1,1,1,10) (7)     
                                                                    O: activation_6_output        (1,1,1,10) (8)     
----------------------------------------------------------------------------------------------------------------------



Complexity report per layer - macc=20,867,296 weights=874,728 act=140,800 ram_io=12,328
--------------------------------------------------------------------------------
id   name              c_macc                    c_rom                     c_id
--------------------------------------------------------------------------------
0    conv2d_1_conv2d   ||                 4.4%   |                  0.4%   [0] 
2    conv2d_2_conv2d   ||||||||||||||||  40.0%   |                  4.2%   [1] 
6    conv2d_3_conv2d   ||||||||          19.9%   ||                 8.5%   [2] 
8    conv2d_4_conv2d   ||||||||||||      30.0%   ||||              16.9%   [3] 
13   dense_1_dense     |||                5.7%   ||||||||||||||||  67.7%   [4] 
14   activation_5      |                  0.0%   |                  0.0%   [5] 
16   dense_2_dense     |                  0.0%   |                  2.3%   [6] 
17   activation_6      |                  0.0%   |                  0.0%   [7] 

Generated files (5)
-----------------------------------------------------------------------------------------------------------------
C:\Users\DEMON.DESKTOP-9E21A9R\.stm32cubemx\network_1653745682126_output\network_1653745682126_config.h
C:\Users\DEMON.DESKTOP-9E21A9R\.stm32cubemx\network_1653745682126_output\network_1653745682126.h
C:\Users\DEMON.DESKTOP-9E21A9R\.stm32cubemx\network_1653745682126_output\network_1653745682126.c
C:\Users\DEMON.DESKTOP-9E21A9R\.stm32cubemx\network_1653745682126_output\network_1653745682126_data.h
C:\Users\DEMON.DESKTOP-9E21A9R\.stm32cubemx\network_1653745682126_output\network_1653745682126_data.c
